…
opout(0.2))\n","model.add(layers.Dense(2, activation='softmax'))  # prediction layer, 2 is the number of classes we have\n","model.compile(optimizer='adam',\n","              loss='categorical_crossentropy',\n","              metrics=['accuracy'])\n","model.summary()"],"execution_count":12,"outputs":[{"output_type":"stream","text":["Model: \"sequential\"\n","_________________________________________________________________\n","Layer (type)                 Output Shape              Param #   \n","=================================================================\n","embedding (Embedding)        (None, 118, 100)          11789900  \n","_________________________________________________________________\n","dropout (Dropout)            (None, 118, 100)          0         \n","_________________________________________________________________\n","global_max_pooling1d (Global (None, 100)               0         \n","_________________________________________________________________\n","dropout_1 (Dropout)          (None, 100)               0         \n","_________________________________________________________________\n","dense (Dense)                (None, 50)                5050      \n","_________________________________________________________________\n","dropout_2 (Dropout)          (None, 50)                0         \n","_________________________________________________________________\n","dense_1 (Dense)              (None, 50)                2550      \n","_________________________________________________________________\n","dropout_3 (Dropout)          (None, 50)                0         \n","_________________________________________________________________\n","dense_2 (Dense)              (None, 2)                 102       \n","=================================================================\n","Total params: 11,797,602\n","Trainable params: 11,797,602\n","Non-trainable params: 0\n","_________________________________________________________________\n"],"name":"stdout"}]},{"cell_type":"markdown","metadata":{"id":"9OdXHctIZmeI"},"source":["So we have our model. All we need now is to train it."]},{"cell_type":"
…
